models/drone_15-10-07_whitenoise.pt (torch_old, 683661 bytes, 14 tensors)

sequential.0.bias f4 [8]
00000000: a5de eabc 1551 2c3e 5e9c 13be 85db 90bd
00000010: ce3e 0cbe 2014 5c3c ef5b a5bc 2913 db3c
-0.028670618 0.16827805 -0.14415118 -0.0707312 -0.13695833 0.013432533 -0.020185439 0.026742535

sequential.2.weight f4 [10368]
00000000: 7e6d c5bd 8d51 353f 75e1 e93e 7603 bf3f
00000010: 36d6 0b3f eed4 ae3e 580a fe3f 5f6f e23f
00000020: 9c5a 4e3e fa6f ea3e 6055 9a3f 35e9 583e
00000030: 1c34 eb3f 44d7 f83d 6973 d33f b040 d73f
00000040: a815 d73f 9a7d a83f 8113 313f 4dec d13f
00000050: a935 ee3f 2185 df3f 9bc0 ae3f 6f39 873f
00000060: 1dd7 023e 46a9 d83f abc5 2440 b77d cf3f
00000070: ca69 b93f ef26 0340 8222 2c3f 4b9b ac3f
00000080: 8c72 0540 3e92 533e f09d 983e ee1a 3b3e
00000090: ec23 fe3f dbe5 833f c40f 473c 0574 0b3e
000000a0: eac3 d03d fc12 d13f 319d 503e 83fd 3c3f
000000b0: e5cb f83d bc95 ec3e 1344 343f b397 013f
000000c0: c4e3 c23e 85a0 2740 6a59 b63f f5ff 053e
000000d0: eec2 d33d 2ade dd3e 61bc 3e3f 157c f03f
000000e0: 0bfc 523d 79d2 093f a3b3 3b3f f0ec 0c3e
000000f0: ad9f 3e3f 078c 9f3f 3697 2ebf 1b42 ff3d
00000100: 4444 233f e943 693f bbcb 373f 5ebd ed3f
00000110: d7b6 773d 3add 6e40 82d9 3640 fdd5 2c3e
00000120: bbf8 133e 1097 c63e 0367 303e 602a a93f
00000130: 9705 683f a95c fe3f 7093 6b3e f06b f53f
00000140: 7000 903f 6112 8e3e 502a 963e a56e 2e3e
00000150: 1231 753f 025f 863f 4031 623f a3de 3d3f
00000160: 1f6c 383f abef 823f fa21 e33f 9439 a73f
00000170: 8854 e83f 3644 903d 1163 c9bb b3c0 7b3d
00000180: 131a c13e 8f15 f43f 78e5 e63f 8e3e 0a40
00000190: 6a8b e23f f0a2 52be 0735 b33f 60a3 cdbb
000001a0: 4800 c93c 4aa4 003d 7667 d63e 8a27 0140
000001b0: 1012 ae3f dcab 573f 3630 343f 1e41 ff3e
000001c0: 2f02 b93e b24a 493e 0f8b 5a3f 68af ee3e
000001d0: 258b b63e 29ce bb3d c787 bf3e 261a 2e3f
000001e0: f102 443f 07e4 d03e 43c9 603c f659 373e
000001f0: b515 7f3f 6274 673f e7f0 0540 3ad4 9f3f
00000200: 5892 1b3e 1ddf ad3f daf4 873e dcd1 ce3f
00000210: 7634 553e 88ee 4d3f a754 3c3b cc45 dc3e
00000220: 1766 9b3f 3311 583f 3a3c a13f 0493 913f
00000230: aa7b 9f3f f83f 5c3f f775 cb3f 2213 c63f
00000240: c746 223e 021c 9e3f efe6 38be 683c 323e
00000250: 11dc 1e3e 3d0c dc3d ec8b 123f 8a37 8f3e
00000260: 3b63 923f 0ebc 983f 388c 9f3e 2ea7 7c3e
00000270: ec63 a73f be01 933e 73db a73f 8a5b b43d
00000280: 2a71 7c3f ea56 093f e1a8 b33f 9206 a53f
00000290: 1ee9 b53e 9c04 343f 4e8d 303f 23be 9c3f
000002a0: df49 943f aa62 943e 4162 d03f 0329 a53f
000002b0: adb5 de3e a83a 743f 3e02 853f 2372 b33f
000002c0: d109 ac3f f733 0e3f c4e1 863e 6f1b 363f
000002d0: cf27 e23f 56cf a13e 9519 c73d 2999 d33d
000002e0: 2674 343f ab24 363f 8fce 303f 1662 8c3d
000002f0: 1f12 193f e5bc 693e 81a9 0c3f ffc2 b13e
00000300: 02c0 803d 1647 4c3f 0349 a53e a1f5 e73f
00000310: 8c33 1b3f 00dc 903f 44ec a93e 7c75 683f
00000320: 3dbf 3a3f f6d7 123f a694 5f3f 67fa 563f
00000330: 454c 153f 58cd 0d3f 911d 3f3e 5da3 483f
00000340: 5661 983f b622 ab3f a674 4b3e c634 0b3e
00000350: 50d9 c13d 08eb b53e 3394 f93d b210 173e
00000360: f81e 5c3f 6c68 81be e8f6 563f cd53 cd3d
00000370: ee9b 603f 0e99 0c3e bbea 433f 19d2 a93d
00000380: 31f0 103f d73a 013f 25b3 1a3f cebe ef3e
00000390: ce14 ca3e fdb7 4d3d ab47 053e 37b8 4c3f
000003a0: 6f02 943f d6e4 233f 56c0 b33d 46ad 883f
000003b0: e07d 5d3f 75ce fa3c e6cc ccbc e8ac 763f
000003c0: 1543 643f c3a9 303f 6401 843f 84ee 5c3f
000003d0: cc32 00be 3ccd 213f 64ef 263f 761e 9c3f
000003e0: 0fe0 0c3f 1d96 ce3f 8b3c 0b3e a53d 963f
000003f0: 1c40 c13f 44f9 dc3e 7110 d93e 0de7 0c3f
-0.096400246 0.7082756 0.45679823 1.4922931 0.54623735 0.34146827 1.9846907 1.7690238
0.20151752 0.45788556 1.2057304 0.21182711 1.8375278 0.12150434 1.6519595 1.6816616
1.6803484 1.316333 0.69170386 1.6400238 1.8610126 1.7462503 1.3652529 1.0564402
0.12777372 1.6926658 2.5745647 1.621024 1.4485409 2.0492513 0.67240155 1.3484892
2.0851164 0.20661256 0.29807997 0.18271992 1.9854712 1.0304521 0.012149755 0.13618477
0.10193618 1.6333919 0.20372464 0.7382433 0.12148265 0.46207988 0.70416373 0.506221
0.38064396 2.6191723 1.4246037 0.13085921 0.10339914 0.4333356 0.74506193 1.8787867
0.0515099 0.5383678 0.7332098 0.1376226 0.74462396 1.2464608 -0.6819948 0.124637805
0.6377604 0.9111925 0.71795243 1.8573415 0.060477104 3.7322526 2.8570256 0.16878505
0.14450352 0.38787127 0.17226796 1.3216057 0.9063353 1.9872028 0.23005462 1.9173565
1.1250134 0.27748397 0.29329157 0.17034395 0.95778 1.0497744 0.883564 0.7416784
0.7203998 1.0229391 1.7744744 1.3064446 1.8150797 0.0704426 -0.006145843 0.06146307
0.37715206 1.9069079 1.8038778 2.160068 1.7698796 -0.20569968 1.4000558 -0.0062755793
0.024536267 0.03140668 0.4187581 2.0180383 1.3599262 0.8424661 0.70386064 0.49854368
0.36134478 0.196574 0.85368437 0.466182 0.35653034 0.09170181 0.37408277 0.6800865
0.7656699 0.4079897 0.0137198595 0.17905411 0.996425 0.9041196 2.0928285 1.2486641
0.15192544 1.3583714 0.26553994 1.6157794 0.20820794 0.80442095 0.002873698 0.43022
1.214053 0.84401244 1.2596505 1.1372991 1.2459614 0.8603511 1.5895375 1.5474589
0.15847312 1.2352297 -0.18056844 0.17405856 0.15513636 0.10744522 0.57244754 0.2797206
1.1436533 1.193239 0.31161666 0.24673149 1.3077369 0.28712267 1.3113846 0.08806522
0.98610175 0.53648245 1.4035913 1.289263 0.35529417 0.70319533 0.68965614 1.2245525
1.1585044 0.28981525 1.6279985 1.2903141 0.43497983 0.95402 1.0391309 1.4019207
1.3440496 0.5554804 0.2634412 0.7113561 1.7668399 0.31603497 0.09721676 0.10331947
0.7048973 0.711497 0.69065183 0.06854646 0.59793276 0.22825964 0.5494614 0.34719083
0.062866226 0.7979597 0.32282266 1.8121835 0.6062553 1.1317139 0.3318807 0.90804267
0.72948056 0.5736078 0.87336195 0.83975834 0.58319503 0.55391455 0.18663622 0.7837427
1.1904705 1.3369968 0.19868717 0.1359435 0.09465277 0.35530877 0.1218647 0.14752463
0.85984755 -0.2527498 0.839705 0.10025749 0.8773793 0.1373026 0.76530045 0.08292026
0.56616503 0.5048041 0.604296 0.4682526 0.39468998 0.050224293 0.1301562 0.7996859
1.1563243 0.6402105 0.087769195 1.0677879 0.86520195 0.030616025 -0.025000047 0.96357584
0.8916486 0.69009036 1.0312924 0.86301446 -0.12519377 0.6320379 0.6520903 1.2196796
0.55029386 1.6139561 0.13597314 1.1737562 1.509769 0.43158925 0.42395356 0.55040056

sequential.2.bias f4 [10368]
00000000: c345 3b3f 2d33 e23f 9b73 52bf b75a 283f
00000010: 4aed 50bf 8a40 21bf 0d81 283f 040b 0540
00000020: ef32 61bf 7c42 6bbf e224 eb3d ec89 c13d
00000030: 3929 783f 5e14 08bf 4533 5a3f 6f5c ecbe
00000040: efb6 f83e 18ac ac3f ff30 efbe 20a8 6e3d
00000050: e5cb 183f c6e0 c03f 977a bb3f 9e39 62bf
00000060: b0b9 13bf 08fc ba3f bdf4 7c3f d3cc 02bd
00000070: 833c 353f 0aca d13e ff9c e7be a69f febe
00000080: 3447 033f df26 56bf 7e5b 22bf b204 42bf
00000090: bc7f b9bd ec37 d0be 9e21 46be 5a4a 1ebf
000000a0: 8f36 0bbf 96e3 353f b20d 5cbf f26d e7be
000000b0: e8fa 08bf 3374 2ebf df98 8b3f 9eae 1fbf
000000c0: 3dad 37bf 775c 493f d697 0a3f 50cf 1cbf
000000d0: b8df 06bf 09a2 5e3f 674a 6d3e d862 ce3f
000000e0: f0de a0be a1ca 04bf fcb7 00bf 8986 00bf
000000f0: a234 0b3e d7a2 6abe 9fce ee3e 9be7 17bf
00000100: 8e0a b13d 96d2 0b3e edb0 9c3f 7ab8 e33f
00000110: cd86 babe 762d 9f3f b79f 2f40 6e94 35bf
00000120: 9056 37bf dcef 543f d802 45bf f9ed 60bd
00000130: 231e 043f a5cc cfbd e6f5 4ebf ac31 833f
00000140: 854c 9abe 54a8 8bbf 4b7c 44bf 7523 44bf
00000150: 2b80 d8be 4780 e83f 7f87 ab3e 013d 2a3f
00000160: 4383 1d3f 6987 03be 8642 863e de8b 2ebe
00000170: cf81 8c3f 76e3 cfbe 378a 2cbe 286b b2be
00000180: 9457 14bf 976c 9b3e db92 b53f 59e8 673d
00000190: cdfc 213e 69f3 253e 109a f7bd a3e6 40be
000001a0: 3dc3 6abe c6b3 91be 865f c23d 5893 3bbf
000001b0: 9edf 2dbf 13d9 b13f 1114 5c3f 5630 39bf
000001c0: 0f7e 5ebf 2a29 48bf 130b c83e 12ec a4be
000001d0: b30a 9dbd 905f f6be b409 233f 0c07 a3be
000001e0: 0bdf 14bf 8a73 09bf 3770 32be 4ee0 33bf
000001f0: 426f 0140 2b69 e63f b94d c7bc 1a21 9a3f
00000200: 4752 3abf 5f52 793e da8a 3cbf 02ab 80be
00000210: 2974 39bf c337 80bd eed0 03be 1df1 6e3e
00000220: b79f f63e 8ad7 9e3f fa8c 4a3e 0437 ddbd
00000230: d29c 1fbf 503a 54bf bc07 843e a096 823d
00000240: 5e14 38bf 86d8 053f 64ce 8b3e f61b 55bf
00000250: 1bff 363d 116f 203f d5be c53d e82e 37bf
00000260: 0def a9be 0d07 e6be 04f9 233f 7e04 f4be
00000270: c2d5 323f 0e69 ba3e a612 9c3f c79a 06bf
00000280: 3ea9 adbe bc44 aabd 8838 c03e 7b16 9f3f
00000290: d433 e63e 2a45 163e eea5 1fbf 6c0c 2ebf
000002a0: 891e ee3e 8b7a cfbe 1ba0 3e3e 3971 d4be
000002b0: 4cc5 19bf 5bb3 efbe 0fbd 30be a17a b43e
000002c0: 788a 673e fe19 5fbf 2afa 2abf 3151 45bf
000002d0: 06be 043f d9b0 6e3e 8b50 ebbe 3c57 00bf
000002e0: 3320 c93f 3108 b73f cbe2 7dbe f60b b9be
000002f0: f755 4a3f b00b 51bf d941 fb3e ce80 843d
00000300: 8a23 c3be 6cb8 c7be 3c64 59bf 2c92 813d
00000310: 5e04 27bf 1ef8 683f aa98 353e c3da a13f
00000320: 61fb 7e3f 0628 863e bd06 b5be 7d83 37bd
00000330: d409 3d3f ae04 473e 8b55 ccbe c4dc 723e
00000340: c16d fabe bb56 1f3e 995e 3abf 0db0 1bbf
00000350: 7b2d 08bf 74f0 3f3f f879 1cbf c3aa 20bf
00000360: 6a94 103f eab0 543f 709f 27bf 56fe 13bf
00000370: 2e1b 533e 1db8 2ebf 2106 10bf d495 d4be
00000380: 4585 efbe 1d66 473f 35e5 1f3f 2733 e0be
00000390: ebe8 26bf 28c8 8fbe 6c9f 22bf 2763 7d3e
000003a0: 035a cabe a27a 87bf dbf3 e5be 8e3d 403f
000003b0: 6dd5 c7be bd10 debe c0d2 3cbe a46c 40bf
000003c0: 3652 fcbe f039 2c3e f292 a4be d3d0 fb3e
000003d0: db5e 313f e893 72be c3d2 f43f 00d7 283f
000003e0: 5076 cbbe 623e d43d cb21 24bf 23b5 6a3e
000003f0: 9cf9 ba3f 4a82 7b3f 1e41 573e 38f9 18bf
0.7315332 1.7671868 -0.8220765 0.6576342 -0.81612074 -0.62989104 0.65821916 2.0787973
-0.87968343 -0.9189832 0.11481644 0.09450135 0.969379 -0.5315608 0.8523448 -0.4616427
0.48577067 1.3490019 -0.4671707 0.058265805 0.5968612 1.5068595 1.4646786 -0.88369167
-0.5770521 1.4608164 0.9881094 -0.031933617 0.7079546 0.40974456 -0.45236966 -0.49731177
0.5128052 -0.8365306 -0.63420856 -0.75788414 -0.090575665 -0.40667665 -0.19348761 -0.618322
-0.54380125 0.71050394 -0.859584 -0.4520107 -0.5350785 -0.68146056 1.0906028 -0.6237582
-0.71748716 0.78656715 0.54137933 -0.61253834 -0.5268512 0.86965996 0.23172913 1.6123915
-0.31420088 -0.5187169 -0.5028074 -0.50205284 0.13594297 -0.22913681 0.46642014 -0.59337777
0.08644591 0.13654551 1.2241493 1.7790673 -0.3643097 1.2435749 2.7441232 -0.7092961
-0.7161646 0.83178496 -0.76957464 -0.05491445 0.51608485 -0.10146455 -0.8084396 1.0249534
-0.30136505 -1.0910745 -0.76752156 -0.76616603 -0.42285284 1.8164147 0.33501813 0.66499335
0.61528414 -0.12844624 0.26222628 -0.17045543 1.0977114 -0.40603226 -0.168496 -0.3484738
-0.57946134 0.30356285 1.4185442 0.05661807 0.15819092 0.16206135 -0.12089932 -0.18837981
-0.2292604 -0.2845747 0.09490876 -0.73271704 -0.6791934 1.3894371 0.8596812 -0.7233938
-0.869111 -0.7818781 0.3907095 -0.32211357 -0.07668056 -0.48119783 0.6368668 -0.31841314
-0.58152837 -0.53691924 -0.17425619 -0.70264137 2.0224156 1.8000845 -0.024329053 1.2041352
-0.72781795 0.24347828 -0.7364937 -0.2513047 -0.7244287 -0.06260636 -0.12872669 0.23334165
0.48168728 1.2409527 0.19780341 -0.10801509 -0.62348664 -0.8290148 0.2578715 0.06376386
-0.7190608 0.52283514 0.273059 -0.8324579 0.04467688 0.62669474 0.09655539 -0.7155595
-0.33190194 -0.44927254 0.6405184 -0.47659677 0.6985742 0.36408275 1.2193191 -0.5257992
-0.33918184 -0.08313891 0.3754313 1.2428735 0.44961417 0.14674821 -0.62362564 -0.67987704
0.4650767 -0.4052318 0.18615763 -0.41492632 -0.60066676 -0.46816525 -0.1725962 0.35249808
0.22611415 -0.87149036 -0.6678797 -0.77077013 0.5185245 0.2330965 -0.45959887 -0.5013311
1.5712951 1.4299375 -0.24793546 -0.36141938 0.7903742 -0.8165846 0.49073675 0.0646988
-0.38113052 -0.3900789 -0.8491857 0.06326708 -0.6524104 0.91003597 0.17734018 1.2644886
0.99602324 0.2620241 -0.35356703 -0.04480313 0.7384312 0.19435379 -0.39909014 0.23717028
-0.4891186 0.15560429 -0.72800595 -0.6081551 -0.531944 0.7497628 -0.6112361 -0.6276056
0.5647646 0.8308245 -0.6547766 -0.5780996 0.20615837 -0.68249685 -0.5625935 -0.4152056
-0.46781364 0.7789019 0.6245912 -0.43789026 -0.65199155 -0.28082395 -0.6352451 0.24744855
-0.39521798 -1.05843 -0.4491261 0.75093925 -0.39030018 -0.43372145 -0.1843977 -0.7516577
-0.49281472 0.16818976 -0.3214336 0.49182758 0.6928536 -0.23689234 1.9126819 0.65953064
-0.39738703 0.10363461 -0.64114064 0.2292066 1.4607425 0.9824568 0.21020934 -0.5975528

sequential.2.running_mean f4 [10368]
00000000: f07e d6bc d433 d2bc 797b d8bc dafb d0bc
00000010: be52 a8bc fb6d cebc 1d00 dbbc 2e5e d4bc
00000020: 61b4 e0bc 8e55 e0bc 4949 cfbc 23a9 e1bc
00000030: 3120 d5bc d8e2 e5bc 09a5 d2bc 1656 d8bc
00000040: 5e64 cdbc 34b8 e5bc 0749 c4bc 7a2a d1bc
00000050: 6e3b e0bc f18a d0bc 69dd cebc 0e23 ddbc
00000060: 6cc5 d4bc 05dd d3bc ecf1 ddbc 1ff3 d3bc
00000070: d49a e2bc 87d9 cbbc e4a4 cfbc f51c c5bc
00000080: 6f0c e0bc 5073 cbbc e384 cdbc 3246 d5bc
00000090: 3f6c d8bc 79a0 c9bc 1e14 cfbc ea19 02bd
000000a0: 4fad e0bc 9d80 e6bc 6aa2 debc 300c cbbc
000000b0: be6a d0bc 9724 ddbc fe0f d8bc 55e1 debc
000000c0: f273 d4bc 82f6 ffbc 91bf dbbc a2a5 e8bc
000000d0: 5896 d9bc edd3 efbc 43c7 eabc 6139 d1bc
000000e0: aeb8 d5bc e665 d6bc 6049 f4bc 4eb2 cabc
000000f0: 6c4c d5bc 466f d0bc 67b5 d0bc 1ddd d4bc
00000100: ef4d e6bc 86af cfbc 58b9 dbbc f757 cfbc
00000110: 7637 d9bc 052a e2bc f008 ecbc 2c0f d7bc
00000120: 3cfa d9bc 8eda e6bc 8ecd dfbc ff32 d0bc
00000130: 7d3a dfbc b062 ddbc f73e d7bc f0f4 d5bc
00000140: 9eab dabc c56b e8bc ec11 f2bc 893c e4bc
00000150: c163 e7bc ce4d f1bc dbfa d0bc 1e71 cbbc
00000160: e50e eebc 35bb d3bc 1f93 e3bc 34c8 d0bc
00000170: 3584 dabc 8ab7 cfbc 2e5d c3bc 5e02 f2bc
00000180: c7a4 e1bc 94b1 dbbc 271a f6bc d281 eebc
00000190: bc70 01bd c92c efbc efd9 d7bc 5f28 e4bc
000001a0: 2c36 cfbc aa47 efbc 21be edbc d702 cfbc
000001b0: dc89 d8bc b7af e6bc 2bbf ebbc b62e c3bc
000001c0: d160 d3bc cd9b cebc ad23 e7bc 40bd d4bc
000001d0: a601 ddbc ece5 ddbc 6ab6 e1bc fb06 dabc
000001e0: dae6 d1bc b593 dcbc 04a8 e4bc 73c7 d2bc
000001f0: c550 b7bc 8216 e1bc 0855 bcbc 8850 f6bc
00000200: 5887 ebbc 97ad c3bc 132f fdbc 0597 e7bc
00000210: 5902 c4bc b331 e6bc 2444 ddbc 12de d1bc
00000220: 1969 d2bc df17 d7bc 82a1 c3bc f088 ccbc
00000230: 2c18 c0bc 5cc8 c6bc 24d3 bbbc dfca dcbc
00000240: 90f4 d5bc f1b0 e8bc 5acc c8bc bb05 e3bc
00000250: 60f9 d6bc 6e16 ebbc 6ef9 debc cffc d5bc
00000260: 3170 e2bc f98e e1bc 0ac3 e0bc 5d5c f4bc
00000270: 82d0 d5bc 59b3 dcbc 21e3 dbbc e8f3 d7bc
00000280: 5ebc dcbc 346d d1bc 9a9f b7bc 466b d4bc
00000290: 2521 cfbc 25b6 c5bc 0b7a d8bc 9b86 c7bc
000002a0: e672 e0bc c34e e5bc b529 ddbc 16b7 edbc
000002b0: 9003 dcbc a83f c8bc 0900 f1bc c788 dfbc
000002c0: 2229 e9bc db43 eebc fe8f e7bc ea35 eebc
000002d0: 6229 d0bc 06b1 f7bc 28b4 e1bc feb1 e3bc
000002e0: aa32 cfbc e37f dcbc 4a77 d7bc b362 eabc
000002f0: 368a d6bc c9f7 f4bc db04 d8bc 3378 c6bc
00000300: c87d ecbc c5c6 dbbc 5407 dabc 54a2 d4bc
00000310: 1c16 dabc bdb4 aebc 0c82 eabc 54de c4bc
00000320: 9768 dabc 7bb8 e1bc 4b23 e0bc 8427 e0bc
00000330: 4268 e0bc dd1b e2bc fe90 f4bc 769e d9bc
00000340: c33a e3bc b0d6 cebc da63 c0bc 93cf f8bc
00000350: 7337 c9bc e4ec e6bc 4106 d5bc a539 e9bc
00000360: 3fa0 d8bc 5d63 d6bc 78a2 cdbc a365 e9bc
00000370: e526 cebc 4fae c8bc ddab d8bc 9708 dfbc
00000380: bfc6 c5bc 5183 dfbc c23b cdbc 79e4 c2bc
00000390: 59ff d1bc 1679 c9bc d29e e0bc d3c7 cebc
000003a0: da68 d0bc 0d0b cbbc b3aa e0bc c8aa f2bc
000003b0: 347f d9bc e70d f7bc 3ab1 c4bc 21c2 e4bc
000003c0: cb67 d2bc de20 c2bc 9bc4 bdbc 26ff dbbc
000003d0: 5f37 cfbc e3b2 ddbc e4bb d2bc 17d5 e3bc
000003e0: decb c2bc b04a d0bc d09d eebc 594d debc
000003f0: 2cc4 cbbc 9b76 d6bc 5934 f8bc 802c e0bc
-0.026183575 -0.02565948 -0.026426064 -0.025510717 -0.020547267 -0.025198927 -0.026733452 -0.025923815
-0.027429761 -0.027384546 -0.0253035 -0.027546471 -0.026016327 -0.02806227 -0.02571346 -0.026408236
-0.025072273 -0.028041936 -0.023960603 -0.02553295 -0.027372088 -0.025456877 -0.025252061 -0.026994254
-0.025973044 -0.025862226 -0.027092896 -0.025872765 -0.027661718 -0.024883999 -0.02534718 -0.02406166
-0.027349679 -0.024835259 -0.02508778 -0.026034448 -0.026418803 -0.024612652 -0.025278147 -0.031762995
-0.02742639 -0.0281375 -0.027177054 -0.024786085 -0.025441524 -0.026994986 -0.026374813 -0.027207056
-0.025934193 -0.031245474 -0.026824744 -0.028399292 -0.026560947 -0.029275859 -0.028659469 -0.025540056
-0.026089039 -0.026171636 -0.029820144 -0.024743225 -0.026037417 -0.025443684 -0.025477124 -0.025984341
-0.028113334 -0.02535225 -0.026821777 -0.0253105 -0.026515704 -0.027607927 -0.028812855 -0.026252352
-0.026608579 -0.028180387 -0.027319696 -0.025414942 -0.02724957 -0.027024597 -0.026275141 -0.026117772
-0.026693162 -0.028371701 -0.029549561 -0.027860897 -0.028245809 -0.029456045 -0.025510242 -0.024834212
-0.029059837 -0.025846103 -0.027780114 -0.02548609 -0.02667437 -0.025356073 -0.023848142 -0.029542144
-0.027544392 -0.026818074 -0.030041767 -0.029114638 -0.031601653 -0.02919616 -0.026349036 -0.027851282
-0.025294386 -0.029208977 -0.029021325 -0.025269909 -0.026432924 -0.02815996 -0.02877768 -0.023825984
-0.025803002 -0.025220776 -0.028215254 -0.025969148 -0.026978325 -0.027087174 -0.027552802 -0.026614657
-0.025622774 -0.026925901 -0.027912147 -0.02572987 -0.022377381 -0.027476553 -0.022989765 -0.030067697
-0.02875106 -0.023886485 -0.030906236 -0.028270254 -0.0239269 -0.02809987 -0.027010031 -0.025618587
-0.02568488 -0.0262565 -0.023880724 -0.02496764 -0.023449026 -0.02426546 -0.022927828 -0.026952205
-0.026117593 -0.028404685 -0.024511505 -0.027712693 -0.026241958 -0.028697219 -0.027218547 -0.026121525
-0.027641388 -0.027533995 -0.027436752 -0.029829198 -0.0261004 -0.026940988 -0.026841702 -0.02636142
-0.02694529 -0.025564767 -0.022414971 -0.025930058 -0.02528436 -0.024134705 -0.026425382 -0.024356177
-0.027398538 -0.027991658 -0.026997427 -0.029017966 -0.026857167 -0.024444416 -0.029418962 -0.0272869
-0.028461996 -0.02908509 -0.028266903 -0.029078443 -0.025410358 -0.030235779 -0.027551726 -0.027794834
-0.025292713 -0.02691645 -0.026301999 -0.028611517 -0.026188951 -0.02990331 -0.026369503 -0.024227237
-0.02886857 -0.02682818 -0.026614822 -0.02595631 -0.02662187 -0.021326417 -0.028626464 -0.024031796
-0.0266612 -0.027553787 -0.027360579 -0.027362593 -0.027393464 -0.027601177 -0.029854294 -0.026564818
-0.02773798 -0.025248855 -0.023485113 -0.030372417 -0.024562573 -0.02818913 -0.026003959 -0.02846987
-0.026443599 -0.026170427 -0.025101885 -0.028490847 -0.02516503 -0.02449718 -0.026449138 -0.027225776
-0.024142621 -0.027284296 -0.025052909 -0.023790585 -0.025634455 -0.024593871 -0.027419481 -0.025241768
-0.025440622 -0.024785543 -0.027425146 -0.02962245 -0.026549913 -0.030157996 -0.02401029 -0.0279246
-0.025684258 -0.023697313 -0.023165038 -0.026855063 -0.025294958 -0.027062839 -0.025724359 -0.02781157
-0.023778852 -0.025426239 -0.029127985 -0.027136492 -0.024873815 -0.026179602 -0.030298399 -0.02736497

sequential.2.running_var f4 [10368]
00000000: 1e5b 5c40 64fa 5c40 5280 5940 5c39 5d40
00000010: 917b 5d40 b63b 5c40 1c8f 5e40 0eeb 5a40
00000020: 95fd 5840 1b9b 5b40 8ec1 5b40 6477 5a40
00000030: fe28 5b40 3675 5d40 5359 5e40 fe1f 5c40
00000040: b919 5b40 a232 5e40 86b5 5c40 c89d 5b40
00000050: c1db 5a40 869f 5940 94b5 5b40 5a40 5940
00000060: 91b4 5940 26dd 5940 9757 5a40 09cd 5a40
00000070: 18b5 5b40 1459 5c40 683f 5c40 5da7 5c40
00000080: acd4 5c40 f943 5b40 0e1e 5a40 082c 5e40
00000090: 1b1b 5c40 1735 5c40 52ea 5a40 0805 5f40
000000a0: 6a08 5d40 8597 5c40 488c 5940 c324 5c40
000000b0: 6eb9 5940 ccc5 5c40 b705 5b40 c57f 5c40
000000c0: c897 5d40 9396 5c40 e7e8 5e40 3d33 5b40
000000d0: 8f45 5b40 cd42 5c40 4c36 5c40 8aad 5a40
000000e0: 8454 5b40 eb0f 5d40 e941 5940 759e 5940
000000f0: fe73 5c40 1b8f 5c40 db30 5a40 acb3 5c40
00000100: 9c05 5c40 b35b 5a40 90af 5b40 4f98 5a40
00000110: c2d7 5b40 cd80 5e40 d993 5e40 99a8 5e40
00000120: 0061 5c40 7045 5b40 4094 5d40 9570 5f40
00000130: fd98 5e40 9b54 5c40 5881 5c40 de8d 5d40
00000140: 8894 5c40 f37e 5b40 2a11 5940 c44a 5d40
00000150: a3c3 5a40 ded7 5c40 f630 5b40 5c46 5f40
00000160: 391c 5d40 5568 5940 a25b 5a40 ce6f 5c40
00000170: 5793 5d40 234f 5b40 d2a8 5a40 0ee4 5d40
00000180: c948 5940 85a1 5e40 1dab 5b40 7d62 5d40
00000190: 75a4 5b40 0749 5c40 bdff 5b40 94c0 5b40
000001a0: 3873 5d40 fa12 5c40 f2aa 5a40 83a6 5d40
000001b0: 3181 5b40 e2c7 5c40 9029 5c40 4f6d 5c40
000001c0: 7b30 5d40 94b9 5c40 ba54 5c40 2e72 5a40
000001d0: 0cb5 5c40 cc95 5b40 1a7b 5c40 2e93 5a40
000001e0: 8881 5c40 fe2f 5940 12af 5c40 a4f6 5d40
000001f0: aa6d 5b40 9231 5c40 d992 5940 a843 5b40
00000200: 03a1 5c40 b7c2 5a40 3770 5b40 f7f1 5b40
00000210: cc22 5a40 6184 5940 5ef7 5a40 4ad9 5940
00000220: 8a44 5c40 9edc 5d40 2dcf 5c40 f3a3 5940
00000230: 2536 5d40 112c 5d40 6fc1 5c40 1265 5c40
00000240: f5dc 5940 e472 5b40 8092 5b40 8f58 5b40
00000250: ec99 5c40 b25c 5d40 da57 5b40 3903 5a40
00000260: 2092 5940 794e 5a40 e0c2 5a40 d955 5b40
00000270: b3f7 5c40 b8e9 5b40 2a77 5c40 35df 5e40
00000280: 2abb 5a40 3a28 5b40 0dd1 5c40 e190 5b40
00000290: a663 5b40 f2d6 5c40 e559 5b40 97fc 5a40
000002a0: 7cef 5d40 baf1 5a40 6c29 5b40 d696 5a40
000002b0: 7e62 5d40 409a 5b40 9896 5b40 2fb4 5b40
000002c0: d072 5c40 f1e2 5a40 787a 5b40 ae24 5d40
000002d0: 0672 5940 b063 5b40 6191 5d40 0ab5 5b40
000002e0: 2ae5 5940 ae0d 5c40 8089 5a40 5561 5940
000002f0: f01f 5b40 5eef 5940 9bb3 5940 a405 5c40
00000300: 2630 5e40 e31e 5c40 1dd4 5a40 85a0 5c40
00000310: 88b9 5940 6484 5b40 a739 5b40 9747 5b40
00000320: 460f 5a40 73c5 5940 dbf4 5c40 481a 5b40
00000330: 6e5e 5c40 0973 5a40 ee68 5c40 6923 5c40
00000340: 794b 5c40 caad 5a40 4c09 5c40 0654 5b40
00000350: ff01 5b40 4a4c 5b40 b907 5a40 243f 5b40
00000360: 0cf5 5b40 10c3 5a40 6398 5b40 ca2f 5c40
00000370: 1672 5a40 bc49 5c40 d1e4 5a40 7fbe 5a40
00000380: a7ee 5b40 0864 5d40 1025 5b40 9894 5a40
00000390: d105 5b40 af79 5d40 cb98 5a40 904d 5b40
000003a0: d0a1 5b40 fc23 5d40 b512 5c40 01c1 5c40
000003b0: 712f 5940 f890 5a40 e9d5 5a40 90d0 5a40
000003c0: 0d2d 5c40 5f82 5c40 3eb7 5b40 5ea3 5a40
000003d0: 05f1 5c40 95ce 5d40 0c2c 5d40 9fe1 5c40
000003e0: d4d6 5a40 e3bd 5a40 2886 5940 f986 5740
000003f0: 8b81 5e40 5fbe 5a40 6df5 5b40 7da2 5c40
3.4430614 3.4527826 3.398457 3.456626 3.460667 3.4411445 3.4774847 3.4205966
3.3904774 3.431342 3.4336886 3.413537 3.424377 3.460279 3.474202 3.4394526
3.423445 3.4718404 3.4485793 3.4315052 3.4196627 3.4003615 3.4329576 3.3945527
3.401646 3.4041228 3.411596 3.4187644 3.432928 3.442937 3.44137 3.447715
3.4504805 3.4260237 3.4080844 3.4714375 3.4391544 3.4407403 3.4205518 3.484682
3.4536386 3.446748 3.399187 3.4397438 3.4019427 3.4495726 3.4222238 3.4452984
3.462389 3.4466903 3.4829652 3.4250023 3.4261205 3.4415772 3.440814 3.416842
3.4270334 3.4540966 3.3946478 3.4002964 3.4445796 3.4462345 3.409232 3.4484663
3.4378424 3.4118469 3.4325905 3.4155462 3.4350438 3.4766114 3.477774 3.4790404
3.4434204 3.4261131 3.4621735 3.4912465 3.4780877 3.442664 3.4453945 3.461784
3.4465656 3.4296234 3.3916726 3.4576883 3.4181907 3.4506755 3.4248633 3.4886694
3.4548476 3.396993 3.4118428 3.444324 3.462118 3.4267051 3.416554 3.4670444
3.3950675 3.4786084 3.432319 3.4591362 3.4319127 3.4419572 3.437484 3.433629
3.4601574 3.4386582 3.4166837 3.463288 3.4297602 3.4496999 3.4400368 3.4441717
3.456084 3.4488268 3.4426713 3.413219 3.4485502 3.4310179 3.4450135 3.4152331
3.445406 3.3935542 3.4481854 3.4681787 3.4285684 3.4405255 3.3995879 3.4260044
3.4473274 3.4181345 3.428724 3.4366434 3.4083738 3.3987048 3.421348 3.4038873
3.4416833 3.4665904 3.450145 3.4006317 3.4564297 3.4558146 3.4493062 3.4436688
3.4041111 3.4288874 3.4308167 3.4272802 3.4468946 3.4587827 3.427237 3.4064467
3.3995438 3.4110396 3.4181442 3.4271147 3.4526184 3.43614 3.4447732 3.4823735
3.4176736 3.4243302 3.4502594 3.4307177 3.427957 3.4506192 3.4273617 3.4216669
3.467742 3.4210038 3.4244032 3.4154563 3.4591365 3.4312897 3.4310665 3.4328725
3.4445076 3.4201014 3.42935 3.4553638 3.3975844 3.4279594 3.4619982 3.4329247
3.404612 3.438335 3.4146423 3.3965657 3.4238243 3.4052348 3.4015872 3.4378443
3.4716887 3.4393852 3.4191964 3.4472973 3.401949 3.4299555 3.4253938 3.4262445
3.4071822 3.4026763 3.4524448 3.423479 3.4432635 3.4132712 3.4439044 3.4396613
3.4421065 3.4168572 3.4380674 3.4270034 3.4219968 3.4265313 3.4067214 3.4257288
3.4368315 3.4181557 3.431176 3.4404168 3.4132133 3.4420004 3.4202158 3.417877
3.4364412 3.4592304 3.424137 3.4153194 3.42223 3.460552 3.4155757 3.426609
3.4317513 3.4553213 3.4386418 3.44928 3.3935206 3.4150982 3.419306 3.4189796
3.4402497 3.4454572 3.4330592 3.4162211 3.4522107 3.4657338 3.4558134 3.4512708
3.419362 3.4178398 3.3988132 3.367613 3.4766567 3.4178693 3.4368546 3.4474175

sequential.6.bias f4 [8]
00000000: adfa 393e cdf6 c6bd 33c3 cf3d 2587 1a3e
00000010: 97d6 68bd c253 f2be 5e38 c13d a54d 03be
0.18162031 -0.09715042 0.10144653 0.15090616 -0.056845274 -0.47329527 0.09434579 -0.12822588

sequential.8.weight f4 [5408]
00000000: 76ef a33e cddb 8f3f 9852 993f ef3b 703f
00000010: 7e30 4c3f f917 393f 9d91 783f cc2a 803f
00000020: c8a7 593f 8e4e 8f3f db9d 313f f613 743f
00000030: ddc1 5e3f ec6f 7e3f 5c92 503f 721d 613f
00000040: 12e6 503f 7bb9 593f 5e9b 4d3f 51f7 553f
00000050: a177 833f b902 343f 6b80 813f 81bc fa3e
00000060: 5bfa 903f 2ec5 6d3f 61ad 903f e3e0 803f
00000070: 1aa6 333f d211 503f 6a1c 843f de19 5d3f
00000080: de7e 8c3f c8ad a53f e574 8c3f e336 7d3f
00000090: c22b 693f 4902 483f b09e a03f 51aa 5e3f
000000a0: 5a7a 903f 63aa 593f 387b 843f 6900 813f
000000b0: 1c3a 863f 4182 1c3f dd19 8a3f 9a61 9c3f
000000c0: d623 853f dc9a 473f 90d0 793f 705c 803f
000000d0: 5561 783f 78d7 5c3f 51e9 173f 67f4 2c3f
000000e0: 0f36 2a3f 8a1b 773f a4bc 583f 58da 563f
000000f0: b0d9 113f 60c2 7e3f 1913 213f dae8 2c3f
00000100: ee68 4c3f f46a 8d3f 731a 853f e275 8e3f
00000110: cd7a 563f bb42 933f 8b01 663f c7f5 963f
00000120: 7f5f 823f 3af3 ba3f 6bf8 dc3e e753 a73f
00000130: 73fe 4a3f 6943 a53f 55d5 5b3f 3755 263f
00000140: 509f 803f 6060 063f 72c4 993f 51a0 b63e
00000150: 43b2 4b3f b2a1 7c3f 0a70 123f a43b 393f
00000160: 1070 603f 520d 883f ba9c 4d3f c343 5f3f
00000170: d668 933f e5d4 903f 00e7 223f 20cc 233f
00000180: fcb7 513f 085e 673f 9328 673f a02d 8f3f
00000190: d61c 9b3f 063e 243f efb1 6b3f 533d 4c3f
000001a0: f287 1e3f 4b3b 433f 68bf 0f3f 0b1d 5b3f
000001b0: 0585 553f 3c55 7a3f e130 5a3f 1e8d 703f
000001c0: f885 4d3f ccd9 453f c28c 283f cf83 813f
000001d0: ec81 b23e 618b ac3f d1ab 103f 7749 893f
000001e0: 80d4 4a3f 8f38 523f 94ae 893e 9330 353f
000001f0: 36fa 713f 9a39 9f3f 94f3 643f 12a7 a03f
00000200: fdef 593f 2c7e 623f b4f1 943f 0fbe 983f
00000210: 4228 5b3f 09ed 6d3f 0cbb a53f 13d4 0c3f
00000220: b56d 603f 5cf2 393f f700 803f 6c8e 643f
00000230: 5b0d 783f 7dab 953f 4f6d 963f 8edb 6b3f
00000240: 1d9c 353f 17a1 2f3f 3df9 403f cd04 1c3f
00000250: da06 143f 8362 c93e 4c04 8c3f 8b99 813f
00000260: 3253 733f 807b 5c3f bbe4 253f c16c 2a3f
00000270: d815 5f3f 0cc8 843f d331 2a3f bd33 483f
00000280: 306b 6a3f e503 1a3f edfe 0d3f b1da 653f
00000290: 44d4 563f 606e 5a3f 25a4 ba3e c726 523f
000002a0: 4729 1c3f fc90 553f 3ffc 833f b630 c83e
000002b0: df5f 3f3f 4d7f 873f 518c 903f 986f 513f
000002c0: 9c44 8c3f 9b1d 513f 030f 2e3f b6b0 a23f
000002d0: 336e 7d3f 7efb 173f 512f 523e b062 933f
000002e0: b8af 1440 06b7 cb3f d63f b53f b3ca 813f
000002f0: 8148 463f 8661 1d3f 85b9 ed3e f373 713f
00000300: 9555 973f 37a0 023f f20c 3b3f 0ccb 943f
00000310: 4ab1 463f f93d 693f b1ba 4b3f 78ad 923f
00000320: 8be1 653f 99bd 7a3f cfb3 bb3e a50e 173f
00000330: 4b9d 863f 786c 633f 1053 163f 8ee8 773f
00000340: 1269 b03f cc87 0840 38ea 0340 7bd9 d73f
00000350: 205e 993f 8e8d 803f c03c 2e3f b130 493f
00000360: 9e2f 213f efa7 673f b818 943e 82c3 673f
00000370: 0d68 553f 0293 843f 854b 803f dba4 833f
00000380: 891b 343f ea9e 313f 0e57 553f aff6 953f
00000390: 8bf2 6e3f 8d0e 633f 9272 373f 4a42 473f
000003a0: 9c04 013f 920a 803f 85c9 043f f31a d53f
000003b0: ec42 af3f 5dc1 8e3f 1d63 653f 08e8 403f
000003c0: 773a 883f e083 da3e cea7 6e3f df48 453f
000003d0: 42c2 8e3f d266 3e3f 65d7 793f 0e25 733f
000003e0: 98bc 2d3f 98fd 6c3f 61a2 263f cf9b 843f
000003f0: 9ff1 5e3f aace 8f3f 9876 183f 5295 643f
0.32018632 1.1238953 1.1978331 0.9384145 0.79761493 0.72302204 0.9709719 1.001306
0.8502164 1.1195848 0.69381493 0.9534296 0.8701456 0.9938953 0.81473327 0.87935555
0.8160106 0.85048646 0.80315197 0.835805 1.0270883 0.70316654 1.0117315 0.48971942
1.1326402 0.92879 1.1302911 1.006863 0.70175326 0.8127719 1.0321171 0.86367595
1.0976217 1.2943659 1.0973173 0.98911875 0.91082394 0.78128487 1.2548428 0.8697863
1.1287339 0.85025615 1.0350103 1.007825 1.0486484 0.6113625 1.0789143 1.2217286
1.0401561 0.7797067 0.97583866 1.002821 0.97023517 0.8626628 0.5934039 0.6756043
0.66488737 0.96526396 0.8466284 0.83926916 0.5697279 0.9951534 0.62919766 0.67542803
0.7984761 1.1048265 1.0398697 1.1129725 0.8378113 1.150474 0.89846104 1.1793755
1.0185393 1.4605477 0.43158278 1.307248 0.7929451 1.2911197 0.85872394 0.6497378
1.0048618 0.52490807 1.2013075 0.35669187 0.7956888 0.9868423 0.5720221 0.7235663
0.87670994 1.0629065 0.8031727 0.8721277 1.1516368 1.131497 0.6363373 0.63983345
0.8192136 0.90377855 0.90296286 1.1185799 1.2118175 0.6415714 0.9206838 0.79781073
0.61926186 0.7626235 0.5615144 0.8559119 0.83406097 0.9778631 0.85230833 0.9396533
0.80282545 0.77285457 0.6583978 1.011835 0.34864748 1.3480035 0.5651217 1.0725545
0.792305 0.8211755 0.26891005 0.70777243 0.94522417 1.2439454 0.8943417 1.2550986
0.8513182 0.88473773 1.1636262 1.1933001 0.85608304 0.9293981 1.2947707 0.550111
0.876674 0.72635436 1.0000294 0.8927982 0.9689538 1.1692959 1.1752108 0.9213189
0.70941335 0.6860518 0.7538031 0.60944825 0.57822955 0.3933297 1.0938811 1.0124983
0.9504882 0.86125946 0.6480214 0.66572195 0.87142706 1.037355 0.66482276 0.78203946
0.91569805 0.6016219 0.5546711 0.8978682 0.8391764 0.8532467 0.36453357 0.8209042
0.61000484 0.83424354 1.0311354 0.39099663 0.7475566 1.0585724 1.1292821 0.81810904
1.0958438 0.816858 0.67991656 1.2710178 0.98996276 0.5936812 0.20525862 1.1514492
2.323225 1.5915229 1.4160106 1.0139984 0.7745438 0.61476934 0.46430603 0.9431755
1.1822993 0.5102572 0.7306663 1.1624465 0.7761427 0.9111019 0.79581743 1.1459188
0.89797276 0.97945553 0.3666062 0.5900672 1.0516752 0.88837385 0.58720493 0.96839225
1.3782065 2.1332884 2.0611706 1.6863245 1.198185 1.0043199 0.6806145 0.7858992
0.62963283 0.9049062 0.2892511 0.90532696 0.83361894 1.0357363 1.0023047 1.0284685
0.70354515 0.6938311 0.8333596 1.1715907 0.9333884 0.8869408 0.71659195 0.77835524
0.5039766 1.0003226 0.51869994 1.6648849 1.3692298 1.115276 0.8960436 0.7535405
1.0642842 0.42678738 0.932248 0.7706432 1.1153033 0.7437564 0.9759429 0.94978416
0.67865896 0.92574453 0.6509152 1.0360049 0.87087435 1.1234944 0.5955596 0.89290345

sequential.8.bias f4 [5408]
00000000: 48f4 68bf df04 46bf 6587 3dbe cf4d 92bf
00000010: 7f9e 39bf 0a27 543f 5ea5 4ebf d86c 25be
00000020: 228f 41be 240a 64bf 03ef 15bf 31c4 06bf
00000030: f45a e23c 938b 9bbe 65aa bfbd 7bae f03e
00000040: a014 17bf 5640 5cbf 47bf 68bf 7210 1c3d
00000050: 7d19 b5be 12fb c03d 4a68 da3e c9da ff3e
00000060: 5033 d7bd ccb6 90bf b9be 86be 2e22 9f3e
00000070: fc25 f93e 269a c43e 9e3e 86bd c584 713d
00000080: b920 f1be 9976 0ebf 9094 6dbe ccd2 033d
00000090: 01f1 edbd bf0e 20bf a978 e2be 5a24 0e3e
000000a0: 6513 e53d 5e3c 92be c52c 17bf e43f 19be
000000b0: 1f84 61bf a65e 9ebe f0d5 57bf d8d7 63bf
000000c0: d3c0 143d 5ae7 603e 8fa1 2ebf ea5e 3dbf
000000d0: feb8 743e a0ff 19bf dd57 0b3f 9306 d6be
000000e0: 06e6 823d 1c75 36bf faaf 37bf 18fc fabd
000000f0: 10ac 36bf 8672 83be 1871 4bbf 6c71 8dbe
00000100: 546d 0ebe ec17 6d3e d81f 1bbf ab46 04bf
00000110: 5ecb fcbe f55c c8bf 6d44 5fbe 7662 69bf
00000120: ddbc b9be 61ca 01bf 2b3d 173f 900c 15bc
00000130: 3280 c5be c162 dcbe bbe1 58bf d6cc 073f
00000140: 7496 debe 0aa6 bcbe f9b6 b1be 8634 3abf
00000150: fd0f 12bf a715 bfbe 1a14 1fbf b343 68bd
00000160: dd71 f8be d567 97be 1bb9 95be 8390 8bbe
00000170: 1964 14bf 6b87 8a3e 904d 63bd 8137 1fbf
00000180: f3bd f83d 7931 86bf a91c 07be 4b57 0bbf
00000190: 9534 5cbf 01d8 ffbe 1812 febe 626f b1bf
000001a0: ca35 313f 4bbc aa3e c463 03be c751 09be
000001b0: 6ca3 29be 34a1 40bf a747 fdbe e3f5 49bf
000001c0: c698 fcbe 66be 103f 3faa 223f 0b04 97bf
000001d0: b97d 2e3e 9ec8 1abf 6b09 98bf 1746 18bf
000001e0: a383 febd 0b4d cfbe 0f1c 28bb fa41 403e
000001f0: d1f0 25be 53c6 45bf b288 7fbf 70b8 f5be
00000200: eb46 cabe 87a6 0fbf 281a 79bf b943 64bf
00000210: 6780 a4be b42a 50be 0472 4abf e31b dfbe
00000220: 9b68 94be ccc1 6d3e 77a3 31bf e9f5 37bf
00000230: 4811 ecbe f092 0bbf c826 06bf b5d7 743e
00000240: 0633 afbf 9e5f 86bd 864c c0be 44ad 13bf
00000250: d079 00bf ba8d c23e b6e5 a0bf 4c90 5d3e
00000260: 09d4 22bf 9bca 8bbf ff0d 19bf d337 95be
00000270: 169a 54bf 45ea 6c3e cc24 51be dfa2 9abf
00000280: 67a8 3cbe d772 41bf 3ce9 4b3e e804 07bf
00000290: 7e6b a2be 4001 21be 0825 4e3e f42f 12be
000002a0: 9433 d6bd e50e a1be eda6 62bf 6638 b6be
000002b0: 7929 9fbe 707b ffbe 1451 7cbe 1792 4bbf
000002c0: 8cbc 00bf 585e 31bf 3436 5fbf d258 d1be
000002d0: 6671 43bf 985a 123e b54f 423f 5166 f4be
000002e0: 7359 79c0 f91b 17c0 cf35 39c0 9f60 55bf
000002f0: d774 bebe 0adc b33b 9582 29bf 2589 a3bf
00000300: dc4c 19bf a33e 39bf fc57 d5be 59f2 79be
00000310: 9a6d 28bf bab9 dcbf 994b cabe b2e7 38bf
00000320: e81a 47bf e70c b0be 5335 473e c3d3 5c3d
00000330: 2bd2 8fbe 8ca4 adbe 00e7 17bf 2028 67be
00000340: 2940 e1bf 22b9 84c0 1f3f 8dc0 2301 14bf
00000350: 14cc 84be 24db 75bf b93a 73bf a078 51bf
00000360: 7ad1 a43d c889 1abe 3356 993f 260e 98bf
00000370: dbb5 35bf 1e0f 09bf c3fc 5cbf 5cbd e2be
00000380: 63fb 393e eebd 72be 1397 c13d 5f35 38bf
00000390: 9e54 70bb 33df eb3d 2c79 3bbf b1d3 9e3d
000003a0: 2841 813f d455 3fbe 75c9 07be b37b b1be
000003b0: 3ed4 8dbe e9b7 303e bf41 cbbe e522 4dbf
000003c0: 7ffb 14bf 5059 adbd 8693 1ebe 32f0 8cbe
000003d0: 6415 2bbf a7f4 95be 1176 6a3c 3cb9 65bf
000003e0: 6379 0bbf 7697 c33c 0146 f0be de6e 36bf
000003f0: 4eb3 83bf ab46 28bf 4789 e4be 639d 41bf
-0.90997744 -0.7735118 -0.1850868 -1.1429995 -0.7250747 0.8287207 -0.8072108 -0.16154802
-0.18902257 -0.89077973 -0.5856783 -0.52643114 0.02763126 -0.30379924 -0.09358672 0.47008118
-0.59015846 -0.8603567 -0.90916866 0.03810162 -0.3537101 0.09422888 0.4265769 0.49971607
-0.10507834 -1.1305785 -0.26317385 0.31080765 0.48661792 0.38398856 -0.06554912 0.05896451
-0.47095278 -0.55649716 -0.23201203 0.032183453 -0.116182335 -0.625225 -0.4423268 0.13881055
0.1118534 -0.28561682 -0.5905269 -0.14965779 -0.88092226 -0.30931586 -0.8431082 -0.89001226
0.036316704 0.21963254 -0.6821527 -0.7397295 0.23898694 -0.6015568 0.54430944 -0.4180189
0.0639153 -0.71272445 -0.71752894 -0.12255114 -0.71356297 -0.25673312 -0.7946944 -0.27625597
-0.13908893 0.23153657 -0.60595465 -0.5167033 -0.49373907 -1.5653368 -0.21803446 -0.91165864
-0.36276904 -0.5069943 0.5907771 -0.009097233 -0.38574368 -0.43044093 -0.8471944 0.5304693
-0.43474162 -0.36845428 -0.3470991 -0.72736394 -0.57055646 -0.37321207 -0.6214005 -0.056705188
-0.4852437 -0.29571405 -0.29242787 -0.2725869 -0.57965237 0.2705644 -0.05549389 -0.6219407
0.12145605 -1.0483848 -0.13194527 -0.54430073 -0.86017734 -0.49969485 -0.4962318 -1.3862116
0.692227 0.3334678 -0.12831026 -0.13410102 -0.16566247 -0.75245976 -0.4946873 -0.7889082
-0.49335307 0.56540525 0.63541025 -1.1798109 0.17040147 -0.6046237 -1.1877874 -0.5948195
-0.124274515 -0.40488467 -0.002565149 0.18775168 -0.16205145 -0.77255744 -0.99817955 -0.47992277
-0.3950723 -0.56113476 -0.97305536 -0.89165837 -0.32129213 -0.2032879 -0.79080224 -0.43575963
-0.28986058 0.23218459 -0.6939005 -0.71859604 -0.46106935 -0.54521084 -0.52402925 0.2391041
-1.3687446 -0.06561206 -0.37558383 -0.5768626 -0.5018587 0.37998754 -1.2570102 0.21637076
-0.6360479 -1.0921205 -0.5978698 -0.29144153 -0.83047616 0.23136242 -0.20424193 -1.2080954
-0.18423615 -0.75565857 0.1991319 -0.5274186 -0.31722635 -0.15723133 0.20131314 -0.14276105
-0.104590565 -0.31456676 -0.8853596 -0.35589904 -0.3108633 -0.49898863 -0.24640304 -0.7951979
-0.502877 -0.6928458 -0.8719208 -0.40888077 -0.7634491 0.14292371 0.75902873 -0.4773431
-3.8960845 -2.3610823 -2.8939092 -0.8335056 -0.37198517 0.005488877 -0.6621488 -1.2776228
-0.59882903 -0.723612 -0.4166869 -0.24408855 -0.6579224 -1.7244179 -0.395108 -0.7222854
-0.7777543 -0.34384844 0.19453935 0.05391289 -0.28090033 -0.33914602 -0.59336853 -0.225739
-1.7597705 -4.147599 -4.413955 -0.57814234 -0.2593695 -0.9603751 -0.9501148 -0.81824684
0.08047767 -0.15091622 1.1979431 -1.1879318 -0.70980614 -0.5353869 -0.86323184 -0.44285095
0.18162303 -0.23705265 0.09452643 -0.7195644 -0.003667153 0.11517181 -0.7323177 0.07755221
1.0098009 -0.18685085 -0.13260444 -0.34664688 -0.2770099 0.17257656 -0.39698598 -0.8013137
-0.5819625 -0.08464301 -0.15485963 -0.27527004 -0.66829515 -0.29288217 0.014310376 -0.8973577
-0.54482096 0.023875933 -0.4692841 -0.7126292 -1.0289094 -0.6573283 -0.44635984 -0.7563078

sequential.8.running_mean f4 [5408]
00000000: ad45 a4bd e545 6fbe 5925 6e3e 54bb ef3e
00000010: 13a9 c3ba b96a b5bd 26a2 5a3e a253 ee3e
00000020: e338 503d 3230 0f3e e62c c33e 1c58 ca3e
00000030: 7b83 aa3e c23b 8cbd abfa 573e f312 c23e
00000040: af3c f5be 2105 64be 09d5 b4be e391 a2be
00000050: db17 71be 7331 48be f840 13bf 03c2 50be
00000060: 131c 3bbe f1e2 b6bd 9124 203f 7395 8d3e
00000070: fa1c 12bb 76bc 1d3e 208b ca3b fd2b 273f
00000080: c785 1f3f 8d9f 213f f544 003f 7208 b63d
00000090: cb2c 153f 7d66 7b3e 3b29 49bc 8ca7 043d
000000a0: 0565 ba3d 835b 703e 57f5 743e 314e 253e
000000b0: cefe 8c3b 2727 d13e 564f 1a3e 0b6c f53d
000000c0: 08b4 e8be 71b5 ecbd 42d7 c3bc 3bef d2bd
000000d0: 5408 ccbd 15eb ca3d 2305 1cbe e874 053f
000000e0: 9b9b 54bd db04 913e b4b7 e13e 320b 15be
000000f0: e587 f73e da6f 103f 3963 023f 16d9 c13e
00000100: 251e cdba 1c3b de3e 5f15 433e f969 0e3e
00000110: c38e 9f3e 4117 643e 8385 573e f16e 0d3e
00000120: 9fa7 b6bd 13de 82bd 6fc0 9d3e 71f7 643e
00000130: b286 f53e 1016 24bd b48e 36be 6d2f 8b3e
00000140: 121d 9b3e cdf2 133f 84ee fb3d db98 c63e
00000150: 7cd9 093e 9b80 d83d 651e af3e cb6b 9f3e
00000160: dd9b 1d3f 4f4d a83e 186a 253e 00cc 9f3e
00000170: 6635 b83e 810b a1bd f62a b53e 2e26 863d
00000180: fc96 273e f33a 6b3d c194 e9be bc1c 7b3d
00000190: bc28 a63d 6557 963e 93a3 f93e 7250 873f
000001a0: 1e9e 22be e418 553e ce78 cc3e 1d2a 003e
000001b0: 178b b83c eb3e f63b 54aa debb a289 253e
000001c0: a862 583e 4396 f93e 8b88 3c3e 9916 fe3e
000001d0: a3e0 a83e fef3 7a3e ecfe 80bd 7306 3ebc
000001e0: d248 39bd 3d19 893c 3d54 403e 0a4f 90be
000001f0: f0da a53e b48b 08bd b878 8c3e bceb 803e
00000200: 4348 593f b541 4a3d 7ea0 5bbe 5daf b7be
00000210: 5e6b fd3c 2b9a b53e b206 a83e ed05 8fbd
00000220: 192f 553c 646c 7f3c eb1d 493e e892 803e
00000230: 2c97 a23e 7b54 7d3e 3297 d63d d28a 053d
00000240: a029 64bd 0224 8fbe 081a 683d 2d57 123e
00000250: cb5a bebd 0814 8f3e 49e1 9a3e da24 fdbb
00000260: 84c2 2c38 bf92 793e 97ce 0abe 527a b53e
00000270: 992d 78be 945b 31be 4bb7 063e 85fe 373e
00000280: cbeb e33d 9ade b63d 6777 223e ee1b 9e3e
00000290: 6810 bc3e 7e6e 573e fed1 5c3e 1511 c13d
000002a0: 42e7 e93e ecb0 de3e 554d c33d 3dda 9f3d
000002b0: 299d e0bd b6e1 ef3e 5c53 843e ebef 163e
000002c0: dd78 be3d c25a fabd 805b d23e 19cb 413e
000002d0: ee4c 56bd 3b9f 7f3d cb14 82be 6988 573e
000002e0: 1b99 873e 3c7c 5e3e 9c1e a73e 71db a43e
000002f0: c4c1 b0bd 00cc e0bd 057c 2f3e 6dba 553e
00000300: fb70 a63e d123 ba3e dc6f 033f ca36 ca3e
00000310: b5eb 7bbe fb7e cdbd f1b7 823e 9146 e43d
00000320: eefb 523f cc01 f93e dcd5 fa3e 7653 b83d
00000330: 8d5a 963c 3768 013e 5e5e 3dbf a3e2 debe
00000340: 0671 753e 3090 6b3e 7a86 f03e 037d 2f3f
00000350: 7692 143f 9dee 983e da04 f4bd fb2e afbe
00000360: 99c4 18bd c859 d4bd 7fc3 2b3f 1191 0d3f
00000370: 1e84 4b3e f340 593d 21c5 a8be b8f3 353e
00000380: a7fc 9bbe 121c dc3e cbc5 d53e 7a08 423f
00000390: c833 283f 0009 5f3f a740 5a3e b792 40be
000003a0: eaa6 babe defc c4be 5528 333d fd27 a53e
000003b0: 7fee 5f3f 7f77 1f3f 7456 d73e ad26 c43e
000003c0: ea00 04bd 60c2 aabe dd98 bdbe b462 78bd
000003d0: 0424 7a3e 9cd0 ea3d d317 4bbc a36e 713e
000003e0: 6832 903e 4d7b 003f 4fe1 503e dbc5 713e
000003f0: a67b 323e 27d8 7c3e 50a7 513f 9b05 da3e
-0.08021102 -0.23366506 0.23256435 0.46822608 -0.0014927707 -0.08858246 0.21350917 0.46548182
0.0508355 0.13983229 0.38120192 0.39520347 0.33303437 -0.068473354 0.21091716 0.37905082
-0.4789786 -0.22267582 -0.35318783 -0.31751928 -0.23544256 -0.19550113 -0.5752101 -0.2038651
-0.18272428 -0.089300044 0.62555796 0.27653083 -0.0022295103 0.15403923 0.006181136 0.65301496
0.62313503 0.6313408 0.5010522 0.088883296 0.58271474 0.24550815 -0.0122778965 0.032386348
0.09101299 0.23472409 0.23921715 0.16143109 0.004302836 0.40850183 0.15069327 0.11983498
-0.45449853 -0.11558045 -0.023906354 -0.10299536 -0.09962526 0.099081196 -0.15236335 0.5213151
-0.05190621 0.28324017 0.44085467 -0.14555052 0.48345867 0.5642067 0.5093265 0.37860936
-0.0015649243 0.43404472 0.19051121 0.13907613 0.31163606 0.22274496 0.21047024 0.13811852
-0.0891869 -0.063900135 0.30810878 0.22360016 0.47954327 -0.040060103 -0.17827874 0.2718462
0.30295616 0.5779236 0.123013526 0.38788494 0.1346187 0.105714045 0.34202877 0.31136927
0.61565953 0.32871482 0.16153753 0.31210327 0.3597824 -0.07863522 0.3538434 0.06550251
0.1636619 0.057429265 -0.45621303 0.0613067 0.08113238 0.29363552 0.4875761 1.0571425
-0.1588063 0.20810276 0.39935917 0.12516065 0.02252726 0.0075148246 -0.006795207 0.16165784
0.21131384 0.48747453 0.18411462 0.49626616 0.32983884 0.24507138 -0.062986225 -0.011598217
-0.045235462 0.016735667 0.18782134 -0.28185302 0.323936 -0.033336356 0.2743585 0.2517985
0.8487589 0.04937907 -0.21447942 -0.3587598 0.030934986 0.35469183 0.32817608 -0.06983552
0.013011717 0.015589807 0.19640319 0.2511208 0.3175596 0.24739258 0.10478057 0.032603092
-0.05570376 -0.2795716 0.05666545 0.14291067 -0.09294661 0.2794497 0.30250004 -0.0077253403
4.1189152e-05 0.24372385 -0.1355537 0.35444885 -0.24236144 -0.1732009 0.13155858 0.17968185
0.11128958 0.08929177 0.15865861 0.30880684 0.36731267 0.21038243 0.2156448 0.09427086
0.45684248 0.43494356 0.09536234 0.078052975 -0.10967476 0.4685189 0.25844848 0.14739959
0.093003966 -0.12224342 0.41085434 0.18925132 -0.05231946 0.062407713 -0.2540649 0.2104813
0.26483998 0.21727079 0.3264054 0.3219867 -0.08630708 -0.1097641 0.17137153 0.20871897
0.32508072 0.3635545 0.5134256 0.39494926 -0.24601634 -0.10033985 0.2553096 0.11146272
0.82415664 0.48634183 0.48991287 0.09000294 0.018353725 0.12637411 -0.7397212 -0.43532285
0.23968896 0.23004222 0.46977597 0.6855013 0.5803598 0.29869547 -0.11914988 -0.3421553
-0.037296865 -0.10368687 0.6709518 0.5529948 0.19874617 0.053040456 -0.32962897 0.17768753
-0.30466196 0.42990166 0.41752467 0.75794184 0.6570401 0.8712311 0.21313725 -0.18805967
-0.3645547 -0.38474172 0.043739635 0.3225707 0.8747329 0.6229171 0.42058146 0.38310757
-0.032227434 -0.3335142 -0.37030688 -0.060641006 0.24427801 0.1146557 -0.012395817 0.23577361
0.28163457 0.5018814 0.20398448 0.23610632 0.1742998 0.2469183 0.81895924 0.42582402

sequential.8.running_var f4 [5408]
00000000: 91a4 823e f9fd 703e 9b84 783e 9b33 923e
00000010: a9bf 603e a42e 513e fe3c 4d3e cc43 5e3e
00000020: 4d53 813e 8782 8a3e 24c1 a33e 9bec 823e
00000030: 78f9 8e3e 35d1 9a3e 83cf 923e fc77 983e
00000040: 35f7 953e a4ac 533e 805e 483e 8e71 5e3e
00000050: 96ad 8d3e b9fd a23e 4427 ae3e 2754 783e
00000060: 9a59 8f3e 7acf c73e df73 7f3e a123 803e
00000070: 7bac 563e 2e8a 403e 6988 3d3e 1b53 313e
00000080: 8cdc 183e 2df4 223e 67bc 4e3e 40f9 5c3e
00000090: a151 753e 98e7 5f3e e7f0 743e 52b6 453e
000000a0: 6a8c 8c3e 24bf 903e 1ba1 643e 36e6 5f3e
000000b0: 26b4 4e3e 4a89 473e 2eef 6d3e fca6 7c3e
000000c0: 3344 8d3e 11c5 ab3e 60ff a53e e202 a33e
000000d0: 06e1 7a3e 5a52 4a3e 0540 3d3e 2ab4 303e
000000e0: 5d9a 353e 8d04 fe3d a0fe e23d 94ec 1d3e
000000f0: fb8e 2c3e fa1f 4a3e 194f 5a3e 6f02 513e
00000100: 50f5 263e f624 573e 4eb4 7a3e 1f6b 6c3e
00000110: c1c4 7f3e d0da 793e 4e28 843e a708 753e
00000120: 5dd7 903e b712 783e 0ead 983e b096 ad3e
00000130: 21f5 ce3e 1849 f23e b80e 143e b304 f93d
00000140: e37b 153e a823 223e 4a48 233e cedc 0e3e
00000150: 36f8 de3d 9d20 043e 53b5 f63d 6d87 0b3e
00000160: 764d 293e 02c3 163e b930 113e 0bf0 443e
00000170: 088e 573e 2fbb 5a3e 5612 6f3e 5abe 6d3e
00000180: 10e0 8c3e 0ef3 a93e df7f ad3e 8b75 a63e
00000190: 789f 9f3e 5687 d83e 29da 003f cbee 0b3f
000001a0: 129e e83d 35ef f73d 92bf ee3d c9f6 043e
000001b0: bf8d 003e 65b1 f53d f575 f53d ff74 ec3d
000001c0: 9618 b13d db23 f33d 2c73 e13d 61b4 0e3e
000001d0: ddc8 223e 1d6f 483e 3778 563e 47a4 6c3e
000001e0: 1df4 5e3e b2f3 6f3e 28cf 963e 9a69 aa3e
000001f0: 4c8f 943e da49 963e f6de ad3e 2a8d d63e
00000200: 7b67 cc3e eff5 ff3e 1320 ce3d 91ee c33d
00000210: 3974 ce3d 7e1d c33d 333f ab3d 8337 cf3d
00000220: 8104 c53d 5492 c73d 072d b53d 6b84 df3d
00000230: 607b d13d 49d3 213e cf03 153e 1862 2f3e
00000240: 62f9 3f3e c716 663e 9b69 683e ebf3 633e
00000250: 5a51 543e 72ed 803e 1920 853e 84c5 a63e
00000260: abb9 b83e 2fb2 d13e 66cd cc3e 018d d53e
00000270: 08f9 ca3d e379 0d3e a329 203e 9683 e03d
00000280: 1b2e a53d f8da a53d 9ded a83d 9327 c93d
00000290: 72e1 b63d dc1d b83d 9d5e db3d b540 063e
000002a0: 827a 1e3e fdb9 293e 97f3 4c3e 31a1 593e
000002b0: bb62 753e 4024 683e 59e1 703e 3787 743e
000002c0: 1095 8d3e 05db a63e 7e5a ac3e d7c7 b53e
000002d0: fd75 a83e ab97 ca3e 4b7d 043e 3d3e 3c3e
000002e0: 1af0 753e 362d 663e 54e3 273e 1ac7 d73d
000002f0: ec25 bf3d f2c4 c43d 5881 e33d 734d c73d
00000300: 1afb b53d 4ac0 ee3d 9bb4 0e3e c314 2b3e
00000310: 6919 4c3e 6d12 3c3e cf20 5c3e a5d6 893e
00000320: d518 6a3e 627a 933e 28f9 943e 848e aa3e
00000330: c1e3 b53e 0a2a a93e b5f9 983e 95d4 a33e
00000340: 9a3a 1d3e 3911 693e 23d1 b53e 0c80 dc3e
00000350: d834 a63e b5d7 4b3e 18c2 d93d 0e29 cc3d
00000360: a89c f83d 75fa d93d af1f c13d 8554 bf3d
00000370: 4e2d 073e 1788 313e 7c24 4d3e 1af9 413e
00000380: 220b 613e e1e4 7f3e bd14 923e c13e 9e3e
00000390: 3243 a53e 2a6a bc3e 234d d93e 6ff0 ce3e
000003a0: 8e17 8a3e d381 963e 1797 3e3e 4d58 953e
000003b0: 5941 db3e ddbb ec3e ce57 bf3e b08a 7c3e
000003c0: 34d3 e13d a539 c03d 86ba ad3d 3804 b33d
000003d0: 6f3b b13d 0fb5 c83d fa30 183e 9b65 273e
000003e0: c81a 423e bd78 513e d78d 603e e983 7d3e
000003f0: 05ed 8b3e 329b 8e3e 146e 9b3e 40ea b93e
0.2551618 0.23534383 0.24269335 0.28554997 0.21948113 0.20427948 0.20042798 0.2170555
0.25258866 0.2705271 0.31983292 0.2557114 0.27924705 0.30237737 0.28673944 0.2977904
0.29290166 0.20671326 0.19567299 0.21723005 0.27671498 0.318342 0.34014332 0.24250852
0.27998048 0.3902548 0.24946545 0.25027183 0.20964234 0.18802711 0.18509068 0.17316858
0.14927882 0.15913458 0.20189057 0.21579456 0.2395692 0.2186569 0.23920022 0.19307831
0.27450877 0.2827083 0.22327082 0.21865162 0.20185909 0.19485965 0.23235771 0.24673074
0.27591094 0.33548787 0.32421398 0.31838137 0.24499902 0.19757977 0.18481453 0.17256227
0.17734666 0.12403212 0.11083722 0.15422279 0.16851418 0.1973876 0.21319236 0.20411085
0.16304517 0.21010193 0.24482843 0.23087738 0.249774 0.24399877 0.25812 0.23929082
0.2828931 0.24225889 0.2981953 0.33904028 0.40421394 0.4732139 0.1445874 0.121590994
0.1459804 0.15833914 0.15945545 0.13951418 0.10887186 0.12903066 0.120463036 0.1362588
0.16533455 0.14722827 0.14178742 0.19232194 0.21050274 0.21360467 0.23346838 0.23217145
0.27514696 0.3319325 0.3388662 0.32511553 0.31176353 0.42290753 0.50332886 0.54661244
0.113582745 0.12106172 0.11657633 0.12984766 0.12554072 0.11996726 0.11985389 0.11545753
0.086472675 0.11872073 0.110082954 0.13935997 0.15896936 0.19573636 0.20944296 0.23109542
0.2177281 0.23432806 0.29454923 0.33283693 0.29015577 0.2935322 0.33959168 0.41904575
0.399227 0.4999232 0.100647114 0.09566987 0.100807615 0.095271096 0.08361664 0.1011801
0.0962 0.09744707 0.08846479 0.109139286 0.1022861 0.15803255 0.14552234 0.17127264
0.18747476 0.22469626 0.22696535 0.22261016 0.20734158 0.25181156 0.2600105 0.32572567
0.36079153 0.40956256 0.40000457 0.4170914 0.0991078 0.13816027 0.15640883 0.10962598
0.080654345 0.080984056 0.08248446 0.09822001 0.08929719 0.0899007 0.107114054 0.13110621
0.1547642 0.16574855 0.20014797 0.21252896 0.23963444 0.22670078 0.23523463 0.23879705
0.27652788 0.32588974 0.3366279 0.35504028 0.32902518 0.39568838 0.1293842 0.18383117
0.24017373 0.22478184 0.16395313 0.105360225 0.09333405 0.09607877 0.11108655 0.09731569
0.088857844 0.1165777 0.13936083 0.16707139 0.19931568 0.18366404 0.2149689 0.26921573
0.22861035 0.28804308 0.2909634 0.33311856 0.35525325 0.33039886 0.2987801 0.31998125
0.15354386 0.22760476 0.3551112 0.43066442 0.32462192 0.19906504 0.106327236 0.09968768
0.12139255 0.10643474 0.09429871 0.09342293 0.13200876 0.1733707 0.20033449 0.18942681
0.21976903 0.24989654 0.28531447 0.30907252 0.32277828 0.36799747 0.42441663 0.4041781
0.26971096 0.29395923 0.18612324 0.2916893 0.42823294 0.46237078 0.37371677 0.2466228
0.11026612 0.09385995 0.08482842 0.08741039 0.08653914 0.09800159 0.14862433 0.16347353
0.18955529 0.20456214 0.21929108 0.24757351 0.2732927 0.2785278 0.3035742 0.3631153

sequential.12.weight f4 [5]
00000000: 25b3 2541 1d7a e640 c10e e540 2122 2541
00000010: c90d e440
10.356236 7.2024064 7.158051 10.320832 7.1266828

sequential.12.bias f4 [5]
00000000: bb51 6b40 26dc 65c0 5ea4 65c0 5a5e 2740
00000010: 25e7 a1c0
3.6768634 -3.5915618 -3.5881572 2.6151338 -5.059466

sequential.12.running_mean f4 [5]
00000000: 9e08 fa40 001f 16c1 ede7 30c1 6f3d 0241
00000010: aeea 88c0
7.813552 -9.382568 -11.0566225 8.139998 -4.2786474

sequential.12.running_var f4 [5]
00000000: d3b7 6843 0456 f742 21d6 d442 e772 6b43
00000010: f11e f942
232.71806 123.668 106.41822 235.44884 124.56043
